AI/Training/Export/model.pt (torch, 33853 bytes, 16 tensors)

weight f4 [6, 6, 3]
-0.24035835 -0.01708365 -0.02817643 -0.27167925 0.06634433 0.10200881 0.1336779 -0.13938554
-0.24119605 -0.015977949 0.14913979 -0.08238985 0.008967129 -0.2541751 -0.041228827 -0.17686687
-0.19263476 0.057500653 -0.0011906725 -0.12030707 0.1734322 0.17989808 0.10256784 0.08034768
-0.052270018 0.09705005 0.11737969 0.18240693 -0.17166752 -0.14530039 -0.061211634 0.21550214
-0.1651312 0.27636346 0.07962017 0.05246879 -0.16998176 0.013027273 0.0044333716 -0.11141817
-0.16138546 -0.26096958 0.11202304 -0.03212536 0.1273756 -0.20693551 -0.28899288 -0.053647418
0.125997 -0.084428065 0.10806584 0.13694927 -0.1830723 -0.116133355 0.055604555 -0.21179691
0.19141744 0.04125316 0.15375255 0.22113284 -0.036161054 -0.2018683 0.2800849 0.10458088
0.101366095 0.20964931 -0.09067203 0.050266508 -0.19005021 -0.0045871157 0.08279781 -0.19172852
-0.19510391 0.07308218 0.07921054 0.0002841733 -0.0029735873 -0.14881155 -0.31823435 0.061158583
0.006811671 -0.14987245 -0.06371151 0.101176076 -0.22293614 -0.13724644 0.05446553 -0.22274926
-0.145513 -0.023484558 0.1908874 0.15576497 -0.059643492 0.07340023 0.16357782 -0.18548386
-0.16704507 0.1313488 -0.045172844 0.18799414 -0.08965183 0.014653612 0.12974638 0.18076095
-0.13071923 0.17594768 -0.010294399 0.04448409
00000000: 8020 76be 03f3 8bbc 42d2 e6bc 8b19 8bbe
00000010: 89df 873d ffe9 d03d dce2 083e 15bb 0ebe
00000020: 19fc 76be 30e4 82bc 1ab8 183e 02bc a8bd
00000030: ddea 123c 3d23 82be 8fdf 28bd 971c 35be
00000040: 0c42 45be ce85 6b3d 5710 9cba 8e63 f6bd
00000050: 3698 313e 3437 383e 160f d23d 538d a43d
00000060: 1619 56bd 2dc2 c63d c364 f03d e2c8 3a3e
00000070: 9cc9 2fbe a0c9 14be 0db9 7abd 98ac 5c3e
00000080: 2718 29be 837f 8d3e e60f a33d 84e9 563d
00000090: b30f 2ebe 5870 553c d145 913b 362f e4bd
000000a0: 3b42 25be ce9d 85be 566c e53d e295 03bd
000000b0: c06e 023e e7e6 53be e0f6 93be 65bd 5bbd
000000c0: 5c05 013e 9fe8 acbd a051 dd3d 6e3c 0c3e
000000d0: 4e77 3bbe 53d7 edbd 9ac1 633d 4ae1 58be
000000e0: ef02 443e 13f9 283d 4f71 1d3e a670 623e
000000f0: 9d1d 14bd 90b6 4ebe 4a67 8f3e 802e d63d
00000100: 0799 cf3d 4fae 563e 42b2 b9bd 41e4 4d3d
00000110: 869c 42be 844f 96bb e691 a93d 7b54 44be
00000120: 52c9 47be 1cac 953d 2339 a23d 18fd 9439
00000130: 84e0 42bb 0e62 18be 9def a2be 6c81 7a3d
00000140: 7034 df3b 2a78 19be 2e7b 82bd 6735 cf3d
00000150: 5f49 64be 558a 0cbe 3f17 5f3d 6218 64be
00000160: 5c01 15be b062 c0bc fd77 433e da80 1f3e
00000170: bc4c 74bd dc52 963d f280 273e 7bef 3dbe
00000180: dd0d 2bbe 4d80 063e 2907 39bd 8981 403e
00000190: 619b b7bd b415 703c 3cdc 043e 6619 393e
000001a0: 43db 05be a12b 343e d7a9 28bc f334 363d

bias f4 [6]
-0.19328216 0.2122346 -0.18757737 0.13021351 -0.054870006 0.012570317
00000000: c2eb 45be 0754 593e 4814 40be b156 053e
00000010: 5fbf 60bd bbf3 4d3c

weight f4 [6]
0.95976526 0.9579388 0.95985204 1.006218 1.0381422 0.98962086
00000000: 2db3 753f 7a3b 753f ddb8 753f c0cb 803f
00000010: d8e1 843f cb57 7d3f

bias f4 [6]
-0.049111538 -0.006856884 0.06816922 -0.0020498703 0.16782814 0.025490386
00000000: 2e29 49bd b6af e0bb 4e9c 8b3d 1e57 06bb
00000010: 24db 2b3e 37d1 d03c

running_mean f4 [6]
-2415.0442 1693.0065 -2108.2822 1199.974 -2576.526 1530.2643
00000000: b5f0 16c5 35a0 d344 84c4 03c5 2bff 9544
00000010: 6a08 21c5 7548 bf44

running_var f4 [6]
1.6420786e+06 830040.94 1.2324712e+06 450148.0 1.9374472e+06 702748.44
00000000: f572 c849 8fa5 4a49 ba72 9649 80cc db48
00000010: 3a81 ec49 c791 2b49

weight f4 [3, 6, 3]
-0.24344578 -0.21497576 0.16149084 -0.21775326 0.18114242 0.18808478 -0.04338188 -0.069459036
0.0069276365 0.028373377 -0.13234116 -0.20986512 -0.14274488 0.087184556 0.21164745 -0.046990402
0.17045537 -0.18522216 0.09040247 0.15931936 -0.15917592 0.18455358 -0.024562426 0.05896752
-0.20805599 0.109145775 -0.15487511 -0.18318412 0.10581342 -0.15862639 0.0161326 -0.13095523
-0.18827222 0.02923291 -0.013820706 0.14081793 0.038194012 -0.05611321 -0.071599685 0.1299051
-0.13618386 0.07326408 0.019694196 -0.10495131 0.18996888 0.18827792 -0.073579036 0.14849088
0.16516347 -0.1700319 0.21609643 0.24146485 0.11078128 0.2750076
00000000: da49 79be 9b22 5cbe db5d 253e b6fa 5ebe
00000010: 667d 393e 4c99 403e 33b1 31bd 8a40 8ebd
00000020: 3a01 e33b 496f e83c 7184 07be e2e6 56be
00000030: b72b 12be d18d b23d 1cba 583e 0279 40bd
00000040: da8b 2e3e e1aa 3dbe ee24 b93d 9d24 233e
00000050: 03ff 22be 9dfb 3c3e 2437 c9bc ed87 713d
00000060: a10c 55be d287 df3d 9597 1ebe 9e94 3bbe
00000070: b5b4 d83d f56e 22be 8428 843c 2119 06be
00000080: 6fca 40be db79 ef3c 3e70 62bc 9332 103e
00000090: 5371 1c3d f7d6 65bd dba2 92bd d805 053e
000000a0: c873 0bbe 7a0b 963d b955 a13c b6f0 d6bd
000000b0: 3487 423e edcb 403e 9bb0 96bd fe0d 183e
000000c0: 9d20 293e d81c 2ebe 6248 5d3e 9042 773e
000000d0: 4ce1 e23d cccd 8c3e

bias f4 [3]
0.17285511 -0.038496673 0.074817486
00000000: ee00 313e b0ae 1dbd e939 993d

weight f4 [3]
1.1319112 1.1153517 1.0473245
00000000: 77e2 903f d8c3 8e3f bb0e 863f

bias f4 [3]
0.07477116 0.05233012 -0.019878924
00000000: 9f21 993d 1c58 563d 20d9 a2bc

running_mean f4 [3]
-0.012445357 -0.22344172 0.5922235
00000000: 9ce7 4bbc e8cd 64be f69b 173f

running_var f4 [3]
0.0231027 0.12184954 0.1763944
00000000: e041 bd3c 408c f93d bca0 343e

weight f4 [64, 90]
0.17156962 0.08543725 -0.05418271 0.029273544 0.0025521002 0.055919297 0.009663666 -0.048315592
-0.061152637 -0.021490194 -0.09061298 0.036830418 -0.09286899 0.10910112 -0.027918503 -0.08061629
0.0897886 -0.08671297 -0.054076165 -0.06838968 -0.021774765 0.109825365 -0.08087692 -0.03626963
-0.03840606 -0.0374061 -0.04716493 -0.052373607 -0.073066674 -0.07432391 0.03581737 0.037983343
-0.011868957 -0.090880215 -0.03616485 0.07291123 -0.037945766 -0.013076439 0.03778522 -0.10868521
-0.062134877 -0.02428418 -0.07248141 -0.061904147 0.10108343 0.07032294 0.05448952 0.013556318
0.012255572 -0.024268314 -0.050156087 -0.116677284 0.0853636 -0.062486824 -0.053780317 0.058002427
0.01634589 -0.04216807 -0.03144521 0.0029644035 0.110994495 -0.03216812 -0.050728094 0.05185691
0.05247432 0.039017588 -0.049998846 0.03220627 -0.019183563 0.10297281 -0.040186986 -0.017429259
-0.011059337 -0.05358996 0.00019892812 -0.037100874 -0.07159823 -0.026678674 0.020927664 0.07120665
-0.013346827 -0.015737845 0.05559467 -0.018149212 0.06253806 0.054284193 -0.0786702 0.07109961
0.07718593 0.053276822 -0.12620236 0.064293064 -0.05513329 -0.08254216 0.0077124517 0.09537152
-0.042579103 0.014193112 0.050768223 -0.010372399 0.047040135 0.04046842 0.07185834 -0.057173986
-0.04605225 -0.01236575 -0.051725816 0.047685727 -0.0978605 -0.044966906 -0.095546514 0.063760675
-0.09814589 0.07502675 -0.0045760986 0.071262345 -0.019293886 0.07922079 0.027230868 0.12273558
0.08574121 0.0017142372 0.07149418 0.084754996 0.102241024 0.0254301 0.043779798 0.021116525
0.11312801 0.13105474 0.0058658463 0.017523238 -0.07330596 0.01703933 -0.049616363 -0.009839082
-0.006620205 0.07765255 0.0120995715 0.065744445 0.0229343 0.0034550414 0.10837516 -0.059886444
-0.0012493178 0.11556523 -0.05377123 -0.009458796 -0.05663151 0.02537343 0.10177322 0.13818784
0.08471279 -0.008233531 0.13907015 0.010731109 0.13273592 0.020670503 0.07080927 -0.015645305
0.11693429 0.0135416025 -0.055410687 0.045265738 0.13328496 0.075647116 0.08688123 0.069057584
0.13684437 0.022224382 -0.04373632 0.09057378 0.08290749 0.006025202 0.009953643 0.032093637
-0.05600548 -0.03736174 -0.055524677 0.010345531 0.19624513 -0.040322237 -0.014822977 0.035379
0.08464517 -0.009148274 0.07238436 -0.07885358 -0.06570615 -0.008415029 0.020086667 0.08104175
0.046659835 0.08314256 0.008234719 0.023273172 0.014694311 -0.08610987 -0.08792111 -0.062087093
-0.06265273 -0.027881416 0.078632176 -0.050228324 0.07201719 -0.056604844 -0.03751033 0.084491506
0.054544132 0.07211378 -0.05178111 0.12646222 0.018421276 0.02958201 0.09227922 0.009256953
-0.06869835 -0.012396789 0.12657548 -0.03992327 0.07460869 -0.050636776 0.09337386 0.051725637
-0.034738667 0.027384713 -0.054432623 0.059468284 -0.036273547 0.12671871 0.1326365 -0.043026607
-0.033407066 0.02913138 -0.045649644 0.031741988 0.13126405 -0.0058020144 0.10671618 0.07469229
-0.004067552 -0.07010868 -0.022007091 -0.023262005 0.025965173 0.034203578 0.013636361 -0.063523285
0.04646623 0.030964918 -0.04528429 -0.024429016 -0.115445234 -5.7838555e-05 -0.09879754 -0.0017292291
00000000: f2af 2f3e baf9 ae3d b0ee 5dbd 12cf ef3c
00000010: 2341 273b a20b 653d 5a54 1e3c 92e6 45bd
00000020: 307b 7abd 340c b0bc 4c93 b9bd 7edb 163d
00000030: 1932 bebd 6870 df3d 58b5 e4bc 271a a5bd
00000040: 16e3 b73d 9296 b1bd f87e 5dbd e30f 8cbd
00000050: fe60 b2bc 1fec e03d cca2 a5bd 778f 14bd
00000060: ac4f 1dbd 2437 19bd 0330 41bd b585 56bd
00000070: fba3 95bd 2237 98bd 3cb5 123d 6c94 1b3d
00000080: 0476 42bc 681f babd 9821 14bd 7c52 953d
00000090: 056d 1bbd 8f3e 56bc adc4 1a3d 5a96 debd
000000a0: 2481 7ebd 9eef c6bc 2271 94bd 348f 7dbd
000000b0: d404 cf3d 7905 903d 6730 5f3d 521b 5e3c
000000c0: 98cb 483c 58ce c6bc 7870 4dbd 80f4 eebd
000000d0: 1cd3 ae3d 2ff2 7fbd c048 5cbd f493 6d3d
000000e0: d1e7 853c 6db8 2cbd b1cc 00bd 7046 423b
000000f0: 1551 e33d b8c2 03bd 43c8 4fbd e967 543d
00000100: 50ef 563d e8d0 1f3d 97cb 4cbd b9ea 033d
00000110: d926 9dbc 69e3 d23d 1c9b 24bd cec7 8ebc
00000120: 3932 35bc 2581 5bbd 5c97 5039 16f7 17bd
00000130: 18a2 92bd 3c8d dabc 7e70 ab3c cbd4 913d
00000140: a6ac 5abc a7ec 80bc 3db7 633d a8ad 94bc
00000150: f413 803d 1a59 5e3d d81d a1bd ac9c 913d
00000160: a813 9e3d cc38 5a3d 313b 01be 15ac 833d
00000170: 72d3 61bd dd0b a9bd bcb8 fc3b 2552 c33d
00000180: 6d67 2ebd 3a8a 683c 57f2 4f3d fff0 29bc
00000190: 28ad 403d 37c2 253d 772a 933d 452f 6abd
000001a0: 49a1 3cbd b799 4abc 73de 53bd 1c52 433d
000001b0: 166b c8bd 382f 38bd e4ad c3bd f594 823d
000001c0: b600 c9bd a0a7 993d 19f3 95bb fef1 913d
000001d0: 360e 9ebc 823e a23d 4513 df3c cb5c fb3d
000001e0: 1699 af3d 41b0 e03a 8a6b 923d 0794 ad3d
000001f0: be63 d13d c952 d03c 7252 333d 90fc ac3c
00000200: a8af e73d 3733 063e 4936 c03b e58c 8f3c
00000210: 6f21 96bd 1196 8b3c 873a 4bbd 1a34 21bc
00000220: 4eee d8bb 4d08 9f3d 483d 463c 06a5 863d
00000230: b7e0 bb3c fa6d 623b ccf3 dd3d 7d4b 75bd
00000240: 26c0 a3ba 77ad ec3d 393f 5cbd 11f9 1abc
00000250: 71f6 67bd f1db cf3c 7a6e d03d 1d81 0d3e
00000260: e67d ad3d efe5 06bc 6868 0e3e 89d1 2f3c
00000270: edeb 073e 3055 a93c 7304 913d 952a 80bc
00000280: 3f7b ef3d 99dd 5d3c 51f6 62bd 9168 393d
00000290: da7b 083e e0ec 9a3d c9ee b13d 106e 8d3d
000002a0: ee20 0c3e e80f b63c db24 33bd bf7e b93d
000002b0: 67cb a93d 0f6f c53b 9b14 233c 9e74 033d
000002c0: 0166 65bd a008 19bd d86d 63bd 4d80 293c
000002d0: 7cf4 483e ee28 25bd 12dc 72bc 92e9 103d
000002e0: 725a ad3d a4e2 15bc 403e 943d fc7d a1bd
000002f0: f290 86bd 31df 09bc cb8c a43c 38f9 a53d
00000300: 621e 3f3d a646 aa3d eaea 063c 61a7 be3c
00000310: 68c0 703c 5f5a b0bd fc0f b4bd 094f 7ebd
00000320: 1350 80bd 9167 e4bc e809 a13d 37bc 4dbd
00000330: c07d 933d 7bda 67bd 6fa4 19bd e209 ad3d
00000340: ab69 5f3d 64b0 933d 6e18 54bd 507f 013e
00000350: 37e8 963c f955 f23c e3fc bc3d 7aaa 173c
00000360: b8b1 8cbd e71b 4bbc 019d 013e 9586 23bd
00000370: 71cc 983d 8268 4fbd cb3a bf3d 43de 533d
00000380: 224a 0ebd e855 e03c bef4 5ebd 0495 733d
00000390: 9293 14bd 8dc2 013e ddd1 073e ab3c 30bd
000003a0: d9d5 08bd efa4 ee3c 1ffb 3abd e303 023d
000003b0: 156a 063e d31e bebb 038e da3d 45f8 983d
000003c0: 1949 85bb 2495 8fbd 3748 b4bc f68f bebc
000003d0: eab4 d43c 0d19 0c3d 0b6b 5f3c 7f18 82bd
000003e0: 6053 3e3d 24aa fd3c 057c 39bd 5c1f c8bc
000003f0: 8d6e ecbd ad97 72b8 5d56 cabd 4da7 e2ba

bias f4 [64]
0.11066841 -0.073490255 0.20672232 0.01735081 0.10289705 0.18147406 -0.033701472 0.20542206
0.02790303 -0.06747351 -0.1451636 -0.05900583 0.09983453 0.18192257 -0.107823014 0.06696442
-0.070557386 -0.011135929 0.15523437 0.15036476 0.026196687 -0.08019795 0.21975161 0.036566418
-0.036943726 -0.03636877 -0.025923805 -0.033912513 0.22676174 0.026512194 0.09849809 0.17585282
-0.11815274 0.02998082 -0.08567377 0.0011102854 -0.011173933 -0.09015528 -0.016511204 -0.054311574
0.031548977 0.0006177092 -0.035390787 -0.07838203 -0.057285294 0.12774704 -0.010112333 0.20485246
-0.05945004 0.13277167 0.03950687 0.16363403 -0.1440622 -0.09668941 0.0057234587 0.07161586
0.039128717 0.065568104 -0.036559854 -0.15088321 0.011338102 0.08711633 0.009490736 -0.11268085
00000000: 1fa6 e23d 0f82 96bd 04af 533e 4923 8e3c
00000010: b0bb d23d 56d4 393e 8e0a 0abd 295a 523e
00000020: e594 e43c 8d2f 8abd c4a5 14be 19b0 71bd
00000030: 0c76 cc3d e949 3a3e 50d2 dcbd a424 893d
00000040: 6480 90bd 7973 36bc c2f5 1e3e 38f9 193e
00000050: 6f9a d63c d33e a4bd 9106 613e abc6 153d
00000060: 4e52 17bd 6bf7 14bd 295e d4bc d9e7 0abd
00000070: 3b34 683e 1a30 d93c 5eb9 c93d c312 343e
00000080: 10fa f1bd 569a f53c bb75 afbd ff86 913a
00000090: df12 37bc 55a3 b8bd 8142 87bc d075 5ebd
000000a0: 8039 013d c3ed 213a eef5 10bd c286 a0bd
000000b0: fca3 6abd 1fd0 023e 33ae 25bc d8c4 513e
000000c0: e381 73bd 4cf5 073e f5d1 213d ae8f 273e
000000d0: 0b85 13be 1905 c6bd da8b bb3b 56ab 923d
000000e0: 6f45 203d 9248 863d c9bf 15bd 2181 1abe
000000f0: 72c3 393c 0c6a b23d 087f 1b3c 38c5 e6bd

weight f4 [4, 64]
0.19849277 0.018684793 0.15918471 -0.16734056 -0.18313894 0.22189185 -0.15608051 0.28542352
-0.07289757 -0.2012481 -0.10811228 -0.19800481 0.11198155 0.20003204 -0.053242855 -0.0021206145
-0.0862692 -0.19754335 0.21764524 0.09143414 -0.0054327436 0.007210482 0.23115489 -0.081770666
-0.117751524 -0.07820588 0.018283015 -0.19180337 0.21164954 -0.1274458 0.16251065 0.24697624
-0.019457778 0.22540574 -0.06558179 -0.021222003 -0.04561352 -0.19506949 -0.16319653 -0.012950997
-0.20075265 -0.029451273 -0.18972929 -0.20726389 -0.119179614 0.1369482 0.113675445 0.1557672
0.028701555 0.19543847 -0.16109338 0.14239532 -0.11778886 -0.0115362415 -0.05891805 0.023257654
0.19604397 0.09305032 0.080438 -0.1115959 -0.12167997 -0.042815905 0.0068418183 -0.124259464
-0.0143393185 -0.122378 -0.031303633 0.17284164 0.23057102 -0.2019253 0.08358746 -0.20529382
0.011719917 -0.09414938 -0.03480941 -0.045742553 0.0485913 0.037774876 0.075765304 0.12699707
-0.19732712 0.044214047 0.12665145 0.14711587 -0.0025085835 -0.14622214 0.1397432 -0.15553898
0.07839495 0.011382723 -0.025939556 0.090792835 -0.023316884 -0.13756986 -0.22909504 -0.018457562
-0.10902836 0.009899529 -0.11483699 -0.03523872 0.09322662 0.1434134 0.18381423 0.16856767
0.05559391 -0.14978679 -0.10707812 -0.06987604 -0.14714293 0.07957531 -0.12347994 -0.041503742
-0.10815762 0.13157035 0.13525029 -0.11838556 -0.044878248 -0.08725644 -0.122686796 0.18221398
0.18628614 -0.1874772 -0.015692035 0.07198055 -0.13548507 0.17984645 0.02188764 0.177474
-0.103100844 -0.019360352 0.020456102 -0.096614264 -0.13607357 -0.23635514 0.14825943 -0.14403644
0.060028337 0.091713 0.07095764 0.13709033 -0.19883142 0.07340239 -0.035575677 0.055195864
0.0012284421 0.12905337 -0.19882372 0.08154489 0.0029542819 -0.06378301 -0.15176043 -0.12151009
0.026983669 -0.006140306 0.14253911 0.12584074 -0.04921077 0.0232542 -0.21926025 0.009882725
0.09154946 -0.08223249 0.093961105 0.028674262 0.04153717 0.123973764 -0.0020518997 -0.13276169
0.07285207 0.15025413 0.034503847 0.038307324 0.0698128 -0.13091555 -0.23137541 0.024243355
0.024436006 -0.10407833 0.041500002 -0.21057238 0.03421303 0.05040688 0.033455394 -0.050128486
-0.16526845 -0.1236847 -0.018343927 -0.010474535 0.05429007 0.015170738 0.035841897 0.039083604
-0.1062173 0.037809722 -0.15410233 -0.018885065 -0.088371925 0.013838094 -0.06081075 -0.14835574
0.07604975 0.034491863 0.11534206 -0.09320201 -0.23531845 -0.1098959 -0.09472695 -0.18588622
0.061435383 -0.06909727 -0.19042678 -0.1235004 0.119602524 0.14148623 -0.11033403 0.12528916
0.103015915 0.095950834 -0.20256571 -0.12487064 -0.22813773 0.004852532 -0.18381868 -0.05325172
-0.07534927 0.12946783 0.108771496 -0.040394362 -0.2128394 -0.22451377 -0.1372341 -0.14052692
-0.036627233 0.007926748 -0.06540488 0.086924806 0.12219249 -0.14140089 0.031480495 -0.21535711
0.14079447 -0.19710253 -0.054916013 -0.15334821 0.041317202 0.10276389 0.13659793 -0.029604867
-0.13377139 0.019400135 0.09587462 0.15997358 0.024049262 -0.19850896 0.12263464 -0.14481561
00000000: b041 4b3e da10 993c 5101 233e 535b 2bbe
00000010: c688 3bbe 9e37 633e 92d3 1fbe 0823 923e
00000020: 524b 95bd fb13 4ebe f969 ddbd c6c1 4abe
00000030: 9556 e53d 33d5 4c3e 2e15 5abd 02fa 0abb
00000040: e8ad b0bd ce48 4abe 65de 5e3e d341 bb3d
00000050: 2805 b2bb e845 ec3b deb3 6c3e 6177 a7bd
00000060: b627 f1bd 682a a0bd 43c6 953c 1a68 44be
00000070: a8ba 583e 2781 02be 3169 263e 57e7 7c3e
00000080: eb65 9fbc c3d0 663e bf4f 86bd c4d9 adbc
00000090: 3ed5 3abd 4cc0 47be fe1c 27be 6b30 54bc
000000a0: 1a92 4dbe cc43 f1bc 6548 42be fc3c 54be
000000b0: 7114 f4bd 263c 0c3e acce e83d 7081 1f3e
000000c0: 861f eb3c 0621 483e aaf5 24be 14d0 113e
000000d0: 493b f1bd 8102 3dbc 0e54 71bd d686 be3c
000000e0: c0bf 483e 2b91 be3d aebc a43d 648c e4bd
000000f0: 5933 f9bd bb5f 2fbd 5531 e03b bf7b febd
00000100: 76ef 6abc 51a1 fabd 3d38 00bd 66fd 303e
00000110: cf1a 6c3e 81c5 4ebe e72f ab3d 8b38 52be
00000120: e504 403c 64d1 c0bd 5094 0ebd 8b5c 3bbd
00000130: ac07 473d d4b9 1a3d d72a 9b3d 850b 023e
00000140: 1f10 4abe ca19 353d ebb0 013e 8ba5 163e
00000150: 0c67 24bb 42bb 15be d718 0f3e 9c45 1fbe
00000160: 888d a03d 9a7e 3a3c 317f d4bc 98f1 b93d
00000170: 0d03 bfbc 1ddf 0cbe e497 6abe 5034 97bc
00000180: 434a dfbd a231 223c a82f ebbd 7a56 10bd
00000190: 99ed be3d f6da 123e cc39 3c3e 019d 2c3e
000001a0: 71b6 633d b561 19be c64b dbbd 2b1b 8fbd
000001b0: a3ac 16be 61f8 a23d 0de3 fcbd d4ff 29bd
000001c0: be81 ddbd 61ba 063e 0d7f 0a3e 2174 f2bd
000001d0: 41d2 37bd 81b3 b2bd 3743 fbbd 4d96 3a3e
000001e0: cbc1 3e3e 06fa 3fbe 958c 80bc 8a6a 933d
000001f0: 99bc 0abe ab29 383e b54d b33c bfbb 353e
00000200: 8926 d3bd 9a99 9ebc 8e93 a73c b3dd c5bd
00000210: df56 0bbe 1507 72be 52d1 173e 4a7e 13be
00000220: 46e0 753d 06d4 bb3d 3d52 913d 6861 0c3e
00000230: 779a 4bbe fe53 963d cdb7 11bd 0f15 623d
00000240: ad03 a13a 9126 043e 7298 4bbe 0201 a73d
00000250: a09c 413b aba0 82bd 1667 1bbe 48da f8bd
00000260: db0c dd3c 9f34 c9bb c6f5 113e 65dc 003e
00000270: 3b91 49bd 987f be3c c285 60be 27eb 213c
00000280: 497e bb3d 8269 a8bd ae6e c03d 49e6 ea3c
00000290: e122 2a3d f5e5 fd3d 2a79 06bb aef2 07be
000002a0: 7733 953d 38dc 193e e853 0d3d 24e8 1c3d
000002b0: 03fa 8e3d ba0e 06be aded 6cbe 009a c63c
000002c0: 052e c83c 0527 d5bd e8fb 293d 49a0 57be
000002d0: f622 0c3d 7277 4e3d 8608 093d 8753 4dbd
000002e0: 223c 29be 674e fdbd 0146 96bc 629d 2bbc
000002f0: 445f 5e3d b08e 783c f4ce 123d 2116 203d
00000300: 7588 d9bd 5ede 1a3d 00cd 1dbe dab4 9abc
00000310: 57fc b4bd 2cb9 623c b114 79bd 91ea 17be
00000320: f9bf 9b3d 5747 0d3d 7538 ec3d b2e0 bebd
00000330: 52f7 70be 1a11 e1bd 3400 c2bd f558 3ebe
00000340: aba3 7b3d df82 8dbd 3dff 42be c7ed fcbd
00000350: 2bf2 f43d c4e1 103e cff6 e1bd cd4b 003e
00000360: 02fa d23d df81 c43d 636d 4fbe 2ebc ffbd
00000370: f09c 69be fd01 9f3b f73a 3cbe 7a1e 5abd
00000380: b850 9abd 3793 043e 97c3 de3d 8f74 25bd
00000390: 92f2 59be f0e6 65be 1987 0cbe 4ae6 0fbe
000003a0: 7006 16bd 31df 013c fef2 85bd a205 b23d
000003b0: 0e40 fa3d 65cb 10be b1f1 003d 9386 5cbe
000003c0: 6d2c 103e 3fd5 49be 9def 60bd 5007 1dbe
000003d0: 3a3c 293d e075 d23d 54e0 0b3e e885 f2bc
000003e0: 5efb 08be 08ed 9e3c ea59 c43d 1dd0 233e
000003f0: f502 c53c ef45 4bbe df27 fb3d 8b4a 14be

bias f4 [4]
0.117338754 -0.029517584 -0.032534126 -0.1347694
00000000: 4d4f f03d dcce f1bc 8142 05bd fd00 0abe
