AI/Training/Export (DummyData)/npy/fc1_weight.npy (npy, 23168 bytes, 1 tensors)

array f4 [64, 90]
000000 f2 af 2f 3e ba f9 ae 3d b0 ee 5d bd 12 cf ef 3c
       0.17156962 0.08543725 -0.05418271 0.029273544
000010 23 41 27 3b a2 0b 65 3d 5a 54 1e 3c 92 e6 45 bd
       0.0025521002 0.055919297 0.009663666 -0.048315592
000020 30 7b 7a bd 34 0c b0 bc 4c 93 b9 bd 7e db 16 3d
       -0.061152637 -0.021490194 -0.09061298 0.036830418
000030 19 32 be bd 68 70 df 3d 58 b5 e4 bc 27 1a a5 bd
       -0.09286899 0.10910112 -0.027918503 -0.08061629
000040 16 e3 b7 3d 92 96 b1 bd f8 7e 5d bd e3 0f 8c bd
       0.0897886 -0.08671297 -0.054076165 -0.06838968
000050 fe 60 b2 bc 1f ec e0 3d cc a2 a5 bd 77 8f 14 bd
       -0.021774765 0.109825365 -0.08087692 -0.03626963
000060 ac 4f 1d bd 24 37 19 bd 03 30 41 bd b5 85 56 bd
       -0.03840606 -0.0374061 -0.04716493 -0.052373607
000070 fb a3 95 bd 22 37 98 bd 3c b5 12 3d 6c 94 1b 3d
       -0.073066674 -0.07432391 0.03581737 0.037983343
000080 04 76 42 bc 68 1f ba bd 98 21 14 bd 7c 52 95 3d
       -0.011868957 -0.090880215 -0.03616485 0.07291123
000090 05 6d 1b bd 8f 3e 56 bc ad c4 1a 3d 5a 96 de bd
       -0.037945766 -0.013076439 0.03778522 -0.10868521
0000a0 24 81 7e bd 9e ef c6 bc 22 71 94 bd 34 8f 7d bd
       -0.062134877 -0.02428418 -0.07248141 -0.061904147
0000b0 d4 04 cf 3d 79 05 90 3d 67 30 5f 3d 52 1b 5e 3c
       0.10108343 0.07032294 0.05448952 0.013556318
0000c0 98 cb 48 3c 58 ce c6 bc 78 70 4d bd 80 f4 ee bd
       0.012255572 -0.024268314 -0.050156087 -0.116677284
0000d0 1c d3 ae 3d 2f f2 7f bd c0 48 5c bd f4 93 6d 3d
       0.0853636 -0.062486824 -0.053780317 0.058002427
0000e0 d1 e7 85 3c 6d b8 2c bd b1 cc 00 bd 70 46 42 3b
       0.01634589 -0.04216807 -0.03144521 0.0029644035
0000f0 15 51 e3 3d b8 c2 03 bd 43 c8 4f bd e9 67 54 3d
       0.110994495 -0.03216812 -0.050728094 0.05185691
000100 50 ef 56 3d e8 d0 1f 3d 97 cb 4c bd b9 ea 03 3d
       0.05247432 0.039017588 -0.049998846 0.03220627
000110 d9 26 9d bc 69 e3 d2 3d 1c 9b 24 bd ce c7 8e bc
       -0.019183563 0.10297281 -0.040186986 -0.017429259
000120 39 32 35 bc 25 81 5b bd 5c 97 50 39 16 f7 17 bd
       -0.011059337 -0.05358996 0.00019892812 -0.037100874
000130 18 a2 92 bd 3c 8d da bc 7e 70 ab 3c cb d4 91 3d
       -0.07159823 -0.026678674 0.020927664 0.07120665
000140 a6 ac 5a bc a7 ec 80 bc 3d b7 63 3d a8 ad 94 bc
       -0.013346827 -0.015737845 0.05559467 -0.018149212
000150 f4 13 80 3d 1a 59 5e 3d d8 1d a1 bd ac 9c 91 3d
       0.06253806 0.054284193 -0.0786702 0.07109961
000160 a8 13 9e 3d cc 38 5a 3d 31 3b 01 be 15 ac 83 3d
       0.07718593 0.053276822 -0.12620236 0.064293064
000170 72 d3 61 bd dd 0b a9 bd bc b8 fc 3b 25 52 c3 3d
       -0.05513329 -0.08254216 0.0077124517 0.09537152
000180 6d 67 2e bd 3a 8a 68 3c 57 f2 4f 3d ff f0 29 bc
       -0.042579103 0.014193112 0.050768223 -0.010372399
000190 28 ad 40 3d 37 c2 25 3d 77 2a 93 3d 45 2f 6a bd
       0.047040135 0.04046842 0.07185834 -0.057173986
0001a0 49 a1 3c bd b7 99 4a bc 73 de 53 bd 1c 52 43 3d
       -0.04605225 -0.01236575 -0.051725816 0.047685727
0001b0 16 6b c8 bd 38 2f 38 bd e4 ad c3 bd f5 94 82 3d
       -0.0978605 -0.044966906 -0.095546514 0.063760675
0001c0 b6 00 c9 bd a0 a7 99 3d 19 f3 95 bb fe f1 91 3d
       -0.09814589 0.07502675 -0.0045760986 0.071262345
0001d0 36 0e 9e bc 82 3e a2 3d 45 13 df 3c cb 5c fb 3d
       -0.019293886 0.07922079 0.027230868 0.12273558
0001e0 16 99 af 3d 41 b0 e0 3a 8a 6b 92 3d 07 94 ad 3d
       0.08574121 0.0017142372 0.07149418 0.084754996
0001f0 be 63 d1 3d c9 52 d0 3c 72 52 33 3d 90 fc ac 3c
       0.102241024 0.0254301 0.043779798 0.021116525
000200 a8 af e7 3d 37 33 06 3e 49 36 c0 3b e5 8c 8f 3c
       0.11312801 0.13105474 0.0058658463 0.017523238
000210 6f 21 96 bd 11 96 8b 3c 87 3a 4b bd 1a 34 21 bc
       -0.07330596 0.01703933 -0.049616363 -0.009839082
000220 4e ee d8 bb 4d 08 9f 3d 48 3d 46 3c 06 a5 86 3d
       -0.006620205 0.07765255 0.0120995715 0.065744445
000230 b7 e0 bb 3c fa 6d 62 3b cc f3 dd 3d 7d 4b 75 bd
       0.0229343 0.0034550414 0.10837516 -0.059886444
000240 26 c0 a3 ba 77 ad ec 3d 39 3f 5c bd 11 f9 1a bc
       -0.0012493178 0.11556523 -0.05377123 -0.009458796
000250 71 f6 67 bd f1 db cf 3c 7a 6e d0 3d 1d 81 0d 3e
       -0.05663151 0.02537343 0.10177322 0.13818784
000260 e6 7d ad 3d ef e5 06 bc 68 68 0e 3e 89 d1 2f 3c
       0.08471279 -0.008233531 0.13907015 0.010731109
000270 ed eb 07 3e 30 55 a9 3c 73 04 91 3d 95 2a 80 bc
       0.13273592 0.020670503 0.07080927 -0.015645305
000280 3f 7b ef 3d 99 dd 5d 3c 51 f6 62 bd 91 68 39 3d
       0.11693429 0.0135416025 -0.055410687 0.045265738
000290 da 7b 08 3e e0 ec 9a 3d c9 ee b1 3d 10 6e 8d 3d
       0.13328496 0.075647116 0.08688123 0.069057584
0002a0 ee 20 0c 3e e8 0f b6 3c db 24 33 bd bf 7e b9 3d
       0.13684437 0.022224382 -0.04373632 0.09057378
0002b0 67 cb a9 3d 0f 6f c5 3b 9b 14 23 3c 9e 74 03 3d
       0.08290749 0.006025202 0.009953643 0.032093637
0002c0 01 66 65 bd a0 08 19 bd d8 6d 63 bd 4d 80 29 3c
       -0.05600548 -0.03736174 -0.055524677 0.010345531
0002d0 7c f4 48 3e ee 28 25 bd 12 dc 72 bc 92 e9 10 3d
       0.19624513 -0.040322237 -0.014822977 0.035379
0002e0 72 5a ad 3d a4 e2 15 bc 40 3e 94 3d fc 7d a1 bd
       0.08464517 -0.009148274 0.07238436 -0.07885358
0002f0 f2 90 86 bd 31 df 09 bc cb 8c a4 3c 38 f9 a5 3d
       -0.06570615 -0.008415029 0.020086667 0.08104175
000300 62 1e 3f 3d a6 46 aa 3d ea ea 06 3c 61 a7 be 3c
       0.046659835 0.08314256 0.008234719 0.023273172
000310 68 c0 70 3c 5f 5a b0 bd fc 0f b4 bd 09 4f 7e bd
       0.014694311 -0.08610987 -0.08792111 -0.062087093
000320 13 50 80 bd 91 67 e4 bc e8 09 a1 3d 37 bc 4d bd
       -0.06265273 -0.027881416 0.078632176 -0.050228324
000330 c0 7d 93 3d 7b da 67 bd 6f a4 19 bd e2 09 ad 3d
       0.07201719 -0.056604844 -0.03751033 0.084491506
000340 ab 69 5f 3d 64 b0 93 3d 6e 18 54 bd 50 7f 01 3e
       0.054544132 0.07211378 -0.05178111 0.12646222
000350 37 e8 96 3c f9 55 f2 3c e3 fc bc 3d 7a aa 17 3c
       0.018421276 0.02958201 0.09227922 0.009256953
000360 b8 b1 8c bd e7 1b 4b bc 01 9d 01 3e 95 86 23 bd
       -0.06869835 -0.012396789 0.12657548 -0.03992327
000370 71 cc 98 3d 82 68 4f bd cb 3a bf 3d 43 de 53 3d
       0.07460869 -0.050636776 0.09337386 0.051725637
000380 22 4a 0e bd e8 55 e0 3c be f4 5e bd 04 95 73 3d
       -0.034738667 0.027384713 -0.054432623 0.059468284
000390 92 93 14 bd 8d c2 01 3e dd d1 07 3e ab 3c 30 bd
       -0.036273547 0.12671871 0.1326365 -0.043026607
0003a0 d9 d5 08 bd ef a4 ee 3c 1f fb 3a bd e3 03 02 3d
       -0.033407066 0.02913138 -0.045649644 0.031741988
0003b0 15 6a 06 3e d3 1e be bb 03 8e da 3d 45 f8 98 3d
       0.13126405 -0.0058020144 0.10671618 0.07469229
0003c0 19 49 85 bb 24 95 8f bd 37 48 b4 bc f6 8f be bc
       -0.004067552 -0.07010868 -0.022007091 -0.023262005
0003d0 ea b4 d4 3c 0d 19 0c 3d 0b 6b 5f 3c 7f 18 82 bd
       0.025965173 0.034203578 0.013636361 -0.063523285
0003e0 60 53 3e 3d 24 aa fd 3c 05 7c 39 bd 5c 1f c8 bc
       0.04646623 0.030964918 -0.04528429 -0.024429016
0003f0 8d 6e ec bd ad 97 72 b8 5d 56 ca bd 4d a7 e2 ba
       -0.115445234 -5.7838555e-05 -0.09879754 -0.0017292291
