AI/Training/Export/npy/conv1_weight.npy (npy, 560 bytes, 1 tensors)

array f4 [6, 6, 3]
0	0xb93cc47a	-0.0001800227
1	0xb756ab2c	-1.2795248e-05
2	0xb7b1075f	-2.1103477e-05
3	0xb9555d99	-0.00020348131
4	0x38506a95	4.9690327e-05
5	0x38a03a1b	7.6402175e-05
6	0x38d1f85c	0.00010012157
7	0xb8daef6c	-0.00010439646
8	0xb93d6ce5	-0.00018065011
9	0xb748c652	-1.1967104e-05
10	0x38ea41a4	0.00011170216
11	0xb8816940	-6.170804e-05
12	0x36e15b6e	6.7161664e-06
13	0xb9479e5b	-0.00019037111
14	0xb8018484	-3.087941e-05
15	0xb90ae766	-0.00013246908
16	0xb9174990	-0.00014427886
17	0x3834a26f	4.3066622e-05
18	0xb5a80804	-1.2519308e-06
19	0xb904a433	-0.0001264967
20	0x393f368e	0.00018235503
21	0x39465787	0.00018915358
22	0x38e22abc	0.0001078448
23	0x38b12ba2	8.448145e-05
24	0xb8668407	-5.4959233e-05
25	0x38d5fffd	0.00010204313
26	0x390169f4	0.0001234187
27	0x39491ba3	0.00019179149
28	0xb93d447b	-0.00018049956
29	0xb9203276	-0.00015277587
30	0xb886f97c	-6.436088e-05
31	0x396d98a2	0.00022658941
32	0xb9360fa1	-0.00017362695
33	0x39985940	0.00029058196
34	0x38af90f5	8.3716506e-05
35	0x38676470	5.516823e-05
36	0xb91a1b02	-0.00014696646
37	0x373cf7ec	1.1263397e-05
38	0x36809e11	3.8330986e-06
39	0xb8ca0602	-9.63323e-05
40	0xb9124fe5	-0.00013953408
41	0xb96c9856	-0.00022563463
42	0x38cb1ec6	9.685526e-05
43	0xb7e8ffb5	-2.7775628e-05
44	0x38e6f51e	0.00011012911
45	0xb93b9b97	-0.00017891671
46	0xb9830021	-0.00024986363
47	0xb8428c0a	-4.6383626e-05
48	0x38e47533	0.00010893717
49	0xb89915c2	-7.299661e-05
50	0x38c3f1ed	9.343387e-05
51	0x38f85104	0.00011840652
52	0xb925f92f	-0.00015828454
53	0xb8d292b2	-0.000100409045
54	0x38aee2c6	8.3392064e-05
55	0xb9a688cd	-0.00031763912
56	0x39968299	0.00028707532
57	0x3881bf8d	6.1868785e-05
58	0x3971c9ff	0.000230588
59	0x39ade00b	0.00033164056
60	0xb8637725	-5.423198e-05
61	0xb99eba43	-0.00030274884
62	0x39dc3a8f	0.000420053
63	0x3924765f	0.00015684355
64	0x391f6828	0.00015202223
65	0x39a4d882	0.00031441828
66	0xb90e96eb	-0.00013598397
67	0x389e18c6	7.5386415e-05
68	0xb9956f64	-0.00028502487
69	0xb6e6d613	-6.8794557e-06
70	0x390234e6	0.00012417472
71	0xb996c137	-0.00028754186
72	0xb9189566	-0.00014551505
73	0x38649e99	5.450714e-05
74	0x3877ca64	5.907788e-05
75	0x34639344	2.1194597e-07
76	0xb614d589	-2.2178012e-06
77	0xb8e8c294	-0.00011098865
78	0xb978e11e	-0.00023734986
79	0x383f51cb	4.5614124e-05
80	0x36aa7812	5.080373e-06
81	0xb8ea6b61	-0.000111779904
82	0xb8474e42	-4.751818e-05
83	0x389e408e	7.546051e-05
84	0xb92e59a3	-0.00016627325
85	0xb8d6abb8	-0.000102363
86	0x382a61c7	4.062222e-05
87	0xb92e3439	-0.00016613388
88	0xb8e399c8	-0.000108528475
89	0xb792ee67	-1.7515571e-05
90	0x396c4a59	0.0002253441
91	0x3940d064	0.00018388178
92	0xb893a8e0	-7.040962e-05
93	0x38b5b7a0	8.6649554e-05
94	0x394a7c35	0.00019310492
95	0xb9659a04	-0.00021896517
96	0xb94ec6f2	-0.00019719804
97	0x39229726	0.00015505831
98	0xb85fab53	-5.33269e-05
99	0x3968b57f	0.00022192857
100	0xb8ddf392	-0.0001058347
101	0x37911cb0	1.7298706e-05
102	0x39209b5b	0.00015316663
103	0x395fc15f	0.00021338974
104	0xb921cfa4	-0.00015431509
105	0x3959cc18	0.00020770764
106	0xb74be31b	-1.215262e-05
107	0x385c4249	5.251382e-05
