AI/Training/Export/npy/fc2_weight.npy (npy, 1152 bytes, 1 tensors)

array f4 [4, 64]
000000 b0 41 4b 3e da 10 99 3c 51 01 23 3e 53 5b 2b be
       0.19849277 0.018684793 0.15918471 -0.16734056
000010 c6 88 3b be 9e 37 63 3e 92 d3 1f be 08 23 92 3e
       -0.18313894 0.22189185 -0.15608051 0.28542352
000020 52 4b 95 bd fb 13 4e be f9 69 dd bd c6 c1 4a be
       -0.07289757 -0.2012481 -0.10811228 -0.19800481
000030 95 56 e5 3d 33 d5 4c 3e 2e 15 5a bd 02 fa 0a bb
       0.11198155 0.20003204 -0.053242855 -0.0021206145
000040 e8 ad b0 bd ce 48 4a be 65 de 5e 3e d3 41 bb 3d
       -0.0862692 -0.19754335 0.21764524 0.09143414
000050 28 05 b2 bb e8 45 ec 3b de b3 6c 3e 61 77 a7 bd
       -0.0054327436 0.007210482 0.23115489 -0.081770666
000060 b6 27 f1 bd 68 2a a0 bd 43 c6 95 3c 1a 68 44 be
       -0.117751524 -0.07820588 0.018283015 -0.19180337
000070 a8 ba 58 3e 27 81 02 be 31 69 26 3e 57 e7 7c 3e
       0.21164954 -0.1274458 0.16251065 0.24697624
000080 eb 65 9f bc c3 d0 66 3e bf 4f 86 bd c4 d9 ad bc
       -0.019457778 0.22540574 -0.06558179 -0.021222003
000090 3e d5 3a bd 4c c0 47 be fe 1c 27 be 6b 30 54 bc
       -0.04561352 -0.19506949 -0.16319653 -0.012950997
0000a0 1a 92 4d be cc 43 f1 bc 65 48 42 be fc 3c 54 be
       -0.20075265 -0.029451273 -0.18972929 -0.20726389
0000b0 71 14 f4 bd 26 3c 0c 3e ac ce e8 3d 70 81 1f 3e
       -0.119179614 0.1369482 0.113675445 0.1557672
0000c0 86 1f eb 3c 06 21 48 3e aa f5 24 be 14 d0 11 3e
       0.028701555 0.19543847 -0.16109338 0.14239532
0000d0 49 3b f1 bd 81 02 3d bc 0e 54 71 bd d6 86 be 3c
       -0.11778886 -0.0115362415 -0.05891805 0.023257654
0000e0 c0 bf 48 3e 2b 91 be 3d ae bc a4 3d 64 8c e4 bd
       0.19604397 0.09305032 0.080438 -0.1115959
0000f0 59 33 f9 bd bb 5f 2f bd 55 31 e0 3b bf 7b fe bd
       -0.12167997 -0.042815905 0.0068418183 -0.124259464
000100 76 ef 6a bc 51 a1 fa bd 3d 38 00 bd 66 fd 30 3e
       -0.0143393185 -0.122378 -0.031303633 0.17284164
000110 cf 1a 6c 3e 81 c5 4e be e7 2f ab 3d 8b 38 52 be
       0.23057102 -0.2019253 0.08358746 -0.20529382
000120 e5 04 40 3c 64 d1 c0 bd 50 94 0e bd 8b 5c 3b bd
       0.011719917 -0.09414938 -0.03480941 -0.045742553
000130 ac 07 47 3d d4 b9 1a 3d d7 2a 9b 3d 85 0b 02 3e
       0.0485913 0.037774876 0.075765304 0.12699707
000140 1f 10 4a be ca 19 35 3d eb b0 01 3e 8b a5 16 3e
       -0.19732712 0.044214047 0.12665145 0.14711587
000150 0c 67 24 bb 42 bb 15 be d7 18 0f 3e 9c 45 1f be
       -0.0025085835 -0.14622214 0.1397432 -0.15553898
000160 88 8d a0 3d 9a 7e 3a 3c 31 7f d4 bc 98 f1 b9 3d
       0.07839495 0.011382723 -0.025939556 0.090792835
000170 0d 03 bf bc 1d df 0c be e4 97 6a be 50 34 97 bc
       -0.023316884 -0.13756986 -0.22909504 -0.018457562
000180 43 4a df bd a2 31 22 3c a8 2f eb bd 7a 56 10 bd
       -0.10902836 0.009899529 -0.11483699 -0.03523872
000190 99 ed be 3d f6 da 12 3e cc 39 3c 3e 01 9d 2c 3e
       0.09322662 0.1434134 0.18381423 0.16856767
0001a0 71 b6 63 3d b5 61 19 be c6 4b db bd 2b 1b 8f bd
       0.05559391 -0.14978679 -0.10707812 -0.06987604
0001b0 a3 ac 16 be 61 f8 a2 3d 0d e3 fc bd d4 ff 29 bd
       -0.14714293 0.07957531 -0.12347994 -0.041503742
0001c0 be 81 dd bd 61 ba 06 3e 0d 7f 0a 3e 21 74 f2 bd
       -0.10815762 0.13157035 0.13525029 -0.11838556
0001d0 41 d2 37 bd 81 b3 b2 bd 37 43 fb bd 4d 96 3a 3e
       -0.044878248 -0.08725644 -0.122686796 0.18221398
0001e0 cb c1 3e 3e 06 fa 3f be 95 8c 80 bc 8a 6a 93 3d
       0.18628614 -0.1874772 -0.015692035 0.07198055
0001f0 99 bc 0a be ab 29 38 3e b5 4d b3 3c bf bb 35 3e
       -0.13548507 0.17984645 0.02188764 0.177474
000200 89 26 d3 bd 9a 99 9e bc 8e 93 a7 3c b3 dd c5 bd
       -0.103100844 -0.019360352 0.020456102 -0.096614264
000210 df 56 0b be 15 07 72 be 52 d1 17 3e 4a 7e 13 be
       -0.13607357 -0.23635514 0.14825943 -0.14403644
000220 46 e0 75 3d 06 d4 bb 3d 3d 52 91 3d 68 61 0c 3e
       0.060028337 0.091713 0.07095764 0.13709033
000230 77 9a 4b be fe 53 96 3d cd b7 11 bd 0f 15 62 3d
       -0.19883142 0.07340239 -0.035575677 0.055195864
000240 ad 03 a1 3a 91 26 04 3e 72 98 4b be 02 01 a7 3d
       0.0012284421 0.12905337 -0.19882372 0.08154489
000250 a0 9c 41 3b ab a0 82 bd 16 67 1b be 48 da f8 bd
       0.0029542819 -0.06378301 -0.15176043 -0.12151009
000260 db 0c dd 3c 9f 34 c9 bb c6 f5 11 3e 65 dc 00 3e
       0.026983669 -0.006140306 0.14253911 0.12584074
000270 3b 91 49 bd 98 7f be 3c c2 85 60 be 27 eb 21 3c
       -0.04921077 0.0232542 -0.21926025 0.009882725
000280 49 7e bb 3d 82 69 a8 bd ae 6e c0 3d 49 e6 ea 3c
       0.09154946 -0.08223249 0.093961105 0.028674262
000290 e1 22 2a 3d f5 e5 fd 3d 2a 79 06 bb ae f2 07 be
       0.04153717 0.123973764 -0.0020518997 -0.13276169
0002a0 77 33 95 3d 38 dc 19 3e e8 53 0d 3d 24 e8 1c 3d
       0.07285207 0.15025413 0.034503847 0.038307324
0002b0 03 fa 8e 3d ba 0e 06 be ad ed 6c be 00 9a c6 3c
       0.0698128 -0.13091555 -0.23137541 0.024243355
0002c0 05 2e c8 3c 05 27 d5 bd e8 fb 29 3d 49 a0 57 be
       0.024436006 -0.10407833 0.041500002 -0.21057238
0002d0 f6 22 0c 3d 72 77 4e 3d 86 08 09 3d 87 53 4d bd
       0.03421303 0.05040688 0.033455394 -0.050128486
0002e0 22 3c 29 be 67 4e fd bd 01 46 96 bc 62 9d 2b bc
       -0.16526845 -0.1236847 -0.018343927 -0.010474535
0002f0 44 5f 5e 3d b0 8e 78 3c f4 ce 12 3d 21 16 20 3d
       0.05429007 0.015170738 0.035841897 0.039083604
000300 75 88 d9 bd 5e de 1a 3d 00 cd 1d be da b4 9a bc
       -0.1062173 0.037809722 -0.15410233 -0.018885065
000310 57 fc b4 bd 2c b9 62 3c b1 14 79 bd 91 ea 17 be
       -0.088371925 0.013838094 -0.06081075 -0.14835574
000320 f9 bf 9b 3d 57 47 0d 3d 75 38 ec 3d b2 e0 be bd
       0.07604975 0.034491863 0.11534206 -0.09320201
000330 52 f7 70 be 1a 11 e1 bd 34 00 c2 bd f5 58 3e be
       -0.23531845 -0.1098959 -0.09472695 -0.18588622
000340 ab a3 7b 3d df 82 8d bd 3d ff 42 be c7 ed fc bd
       0.061435383 -0.06909727 -0.19042678 -0.1235004
000350 2b f2 f4 3d c4 e1 10 3e cf f6 e1 bd cd 4b 00 3e
       0.119602524 0.14148623 -0.11033403 0.12528916
000360 02 fa d2 3d df 81 c4 3d 63 6d 4f be 2e bc ff bd
       0.103015915 0.095950834 -0.20256571 -0.12487064
000370 f0 9c 69 be fd 01 9f 3b f7 3a 3c be 7a 1e 5a bd
       -0.22813773 0.004852532 -0.18381868 -0.05325172
000380 b8 50 9a bd 37 93 04 3e 97 c3 de 3d 8f 74 25 bd
       -0.07534927 0.12946783 0.108771496 -0.040394362
000390 92 f2 59 be f0 e6 65 be 19 87 0c be 4a e6 0f be
       -0.2128394 -0.22451377 -0.1372341 -0.14052692
0003a0 70 06 16 bd 31 df 01 3c fe f2 85 bd a2 05 b2 3d
       -0.036627233 0.007926748 -0.06540488 0.086924806
0003b0 0e 40 fa 3d 65 cb 10 be b1 f1 00 3d 93 86 5c be
       0.12219249 -0.14140089 0.031480495 -0.21535711
0003c0 6d 2c 10 3e 3f d5 49 be 9d ef 60 bd 50 07 1d be
       0.14079447 -0.19710253 -0.054916013 -0.15334821
0003d0 3a 3c 29 3d e0 75 d2 3d 54 e0 0b 3e e8 85 f2 bc
       0.041317202 0.10276389 0.13659793 -0.029604867
0003e0 5e fb 08 be 08 ed 9e 3c ea 59 c4 3d 1d d0 23 3e
       -0.13377139 0.019400135 0.09587462 0.15997358
0003f0 f5 02 c5 3c ef 45 4b be df 27 fb 3d 8b 4a 14 be
       0.024049262 -0.19850896 0.12263464 -0.14481561
